wa_backend/WA_Model/model.pth (torch, 39348 bytes, 6 tensors)

fc1.weight f4 [128, 6]
0	0x3eb57f34	0.3544861
1	0x3ec4284e	0.38312
2	0x3d63a048	0.055572778
3	0xbeac46a2	-0.3364764
4	0x3eb369a6	0.3504154
5	0xbc41f300	-0.011837721
6	0xbd3bd070	-0.04585308
7	0xbd20fd58	-0.039304107
8	0xbbc97600	-0.0061481
9	0xbeb7eada	-0.35921365
10	0x3ec7123e	0.38881105
11	0xbe028e5c	-0.12749618
12	0x3dfea9d8	0.12434739
13	0x3ea5f310	0.32412004
14	0x3a424c00	0.00074118376
15	0xbd737dd8	-0.059446186
16	0x3e3be098	0.18347394
17	0x3eb35bb6	0.35030907
18	0x3ecf2bba	0.40463048
19	0xbcf8c140	-0.030365586
20	0x3e29b068	0.165712
21	0xbce472d0	-0.027886778
22	0x3e012a7c	0.12613863
23	0xbde540e4	-0.111940175
24	0xbe9a2048	-0.30102754
25	0xbe247076	-0.16058525
26	0xbe9cfe0e	-0.30662578
27	0x3e43a120	0.19104433
28	0xbecca1cf	-0.399672
29	0xbdc25ea8	-0.094907105
30	0xbcffbd90	-0.03121832
31	0x3d8bfa54	0.06834856
32	0x3d261cc8	0.04055479
33	0xbe857688	-0.26066995
34	0x3c8e03d0	0.017335802
35	0xbbbc2d40	-0.005742699
36	0x3d9a1fe4	0.07525614
37	0x3e605738	0.21908271
38	0xbec62c63	-0.3870574
39	0xbba94c80	-0.00516659
40	0xbea50b5f	-0.32235238
41	0x3ecd9876	0.4015538
42	0xbd7b5708	-0.061362296
43	0x3e07f204	0.13275915
44	0x3d993b20	0.0748198
45	0x3d98de20	0.07464242
46	0xbecf9ed9	-0.4055088
47	0x3d8f8140	0.07007074
48	0x3e883124	0.2659999
49	0xbd69af10	-0.05705172
50	0x3eba4042	0.3637715
51	0x3eae40c4	0.34033787
52	0x3e917af2	0.28414112
53	0x3d4f0c10	0.050548613
54	0xbdd22704	-0.10261348
55	0x3e62f6b8	0.22164428
56	0x3db2b2d4	0.08725515
57	0x3e8d6032	0.27612454
58	0x3e450308	0.19239438
59	0xbeb93c84	-0.36178982
60	0xbd4acce0	-0.04951179
61	0xbc226480	-0.009911656
62	0x3e7c7630	0.2465446
63	0xbe5f5d91	-0.21813037
64	0x3dd0aff8	0.101898134
65	0x3e8886f4	0.2666546
66	0xbe314e32	-0.17314985
67	0x3e1c5a24	0.15268761
68	0x3e061ea4	0.13097626
69	0xbe046a88	-0.12931263
70	0x3e4f5dd4	0.20250636
71	0xbc3e04e0	-0.011597842
72	0x3eb711c4	0.35755742
73	0x3e67169c	0.22567219
74	0x3e9faf6c	0.31188524
75	0xbd0b70a8	-0.034042984
76	0x3e12482c	0.14285344
77	0x3e8c61d2	0.2741838
78	0xbe3cef52	-0.18450668
79	0xbe07df9c	-0.13268894
80	0xbcf8c550	-0.030367523
81	0x3d7d44e0	0.061833262
82	0x3e3bf91c	0.18356746
83	0xbdaf8da8	-0.08571941
84	0x3dbe32b0	0.092870116
85	0x3ec683c8	0.38772416
86	0xbe7c9424	-0.24665886
87	0x3e31c28c	0.1735937
88	0x3e947f1c	0.29003227
89	0xbec58a62	-0.3858214
90	0x3cc08060	0.023498714
91	0xbe892048	-0.2678244
92	0xbeb36c5c	-0.3504361
93	0xbea0baea	-0.31392604
94	0x3e23ad08	0.15983975
95	0xbb9d3e00	-0.0047986507
96	0xbe913f8b	-0.28368792
97	0xbe135232	-0.14386824
98	0xbea5dace	-0.32393497
99	0x3da6e9d8	0.08150071
100	0xbea9868c	-0.33110464
101	0x3cc8d410	0.024515182
102	0x3e3e9bf0	0.18614173
103	0xbdca20f8	-0.098695695
104	0x3e449ce8	0.1920048
105	0xbea25d7a	-0.31711942
106	0xbd9273f0	-0.071510196
107	0x3ec191b8	0.37806487
108	0xbc357b20	-0.011076719
109	0xbeb8d320	-0.36098576
110	0xbe9d6a04	-0.30744946
111	0x3eb3fb9e	0.35152906
112	0x3e569ee8	0.20959055
113	0x3e95de10	0.29270983
114	0xbc82a330	-0.015946954
115	0x3e60f0e0	0.21966887
116	0xbe947e75	-0.2900273
117	0xbe8ae46c	-0.27127397
118	0xbeaa4469	-0.33255318
119	0x3e7fef60	0.24993658
120	0xbe284979	-0.16434278
121	0xbe7da37c	-0.24769396
122	0x3ec33632	0.38127285
123	0xbe320e16	-0.17388186
124	0x3e035288	0.12824452
125	0x3dead2c0	0.114659786
126	0x3d16dfe8	0.036834627
127	0x3eb10546	0.34574336
128	0xbe8b1664	-0.2716552
129	0xbe00376c	-0.12521142
130	0xbe874304	-0.26418316
131	0x3e719924	0.23593575
132	0xbddb42c8	-0.10706097
133	0xbe05979a	-0.13046113
134	0x3e5d2b04	0.2159844
135	0x3dbd2100	0.0923481
136	0x3e48e404	0.19618231
137	0x3ec44c0a	0.38339263
138	0xbe7a604c	-0.24450797
139	0x3e84d4de	0.25943655
140	0xbe69d95a	-0.2283682
141	0x3dfc7e68	0.123287976
142	0x3ec8e220	0.3923502
143	0xbeb05811	-0.3444219
144	0xbeaf40ec	-0.3422922
145	0xbdd55a50	-0.10417616
146	0x3eca7ebe	0.39549822
147	0xbe69b6b1	-0.22823597
148	0x3e968d70	0.29404783
149	0xbe6a8554	-0.22902423
150	0x3e45bcbc	0.19310278
151	0x3d471590	0.048604548
152	0xbe0ab47c	-0.13545412
153	0xbe9895d1	-0.298018
154	0xbe0b6118	-0.13611257
155	0xbec2a012	-0.3801275
156	0x3ea53caa	0.32272846
157	0xbe71ef67	-0.23626481
158	0xbe89729a	-0.26845247
159	0xbe71b29c	-0.2360329
160	0x3e8c66b4	0.27422106
161	0xbcafe1b0	-0.02146992
162	0x3ea44eac	0.32091272
163	0xbe824ba9	-0.2544835
164	0x3e93c35a	0.2885998
165	0xbccebf70	-0.025237769
166	0x3e333ec4	0.17504412
167	0xbe95ad0a	-0.2923358
168	0x3ecad9be	0.3961925
169	0xbe9aa7ef	-0.30206248
170	0x3d397900	0.04528141
171	0xbe0c0784	-0.13674742
172	0x3e8621a4	0.2619754
173	0x3dd893d0	0.10575068
174	0xbeaf696e	-0.34260124
175	0xbeb79e1d	-0.35862818
176	0xbdbb560c	-0.091472715
177	0xbe56ed66	-0.20988998
178	0x3e226560	0.15858984
179	0x3e126bb0	0.14298892
180	0x3e4e9d84	0.20177275
181	0xbdfc52fc	-0.123205155
182	0xbe420539	-0.18947305
183	0x3e294b9c	0.16532749
184	0x3ce61ab0	0.028088897
185	0xbdd02a9c	-0.10164377
186	0xbe4d3a72	-0.20041826
187	0x3cba33e0	0.022729814
188	0xbe92c3f4	-0.28665125
189	0xbec3b793	-0.38225994
190	0x3e0d177c	0.1377849
191	0x3e2583b4	0.16163522
192	0xbe192c92	-0.14958408
193	0xbdb8292c	-0.08992228
194	0xbdcf9df4	-0.10137549
195	0xbc27d5a0	-0.010243803
196	0xbeb00037	-0.34375164
197	0xbe09bc0c	-0.1345064
198	0xbd351c80	-0.044216633
199	0xbb01a000	-0.0019779205
200	0xbe208276	-0.15674767
201	0xbec486fe	-0.3838424
202	0x3e0856c8	0.13314354
203	0x3dbefa18	0.09325045
204	0x3e6f5b88	0.2337476
205	0xbe9dbfd8	-0.30810428
206	0x3d29a9c0	0.04142165
207	0xbe3df540	-0.18550587
208	0xbe7b86c3	-0.24563126
209	0xbe336964	-0.17520672
210	0xbeceb20f	-0.40370223
211	0x3eb69ac0	0.3566494
212	0xbc491640	-0.012273371
213	0xbecae98f	-0.39631316
214	0xbe23e7c0	-0.16006374
215	0xbdf092b0	-0.117467284
216	0xbe34e884	-0.17666823
217	0x3ec95b7c	0.3932761
218	0xbca565e0	-0.02019018
219	0xbe1f2e6e	-0.15545055
220	0xbd742370	-0.05960411
221	0x3e62f018	0.22161901
222	0xbe8e8be4	-0.27841103
223	0x3de640f8	0.112428606
224	0x3eb76a1a	0.35823137
225	0xbe19292c	-0.14957112
226	0xbead0046	-0.3378927
227	0xbd9d0048	-0.07666069
228	0x3e2233e8	0.15840113
229	0x3e4f8d80	0.20268822
230	0x3eb97d8a	0.3622859
231	0x3eaa61e4	0.3327781
232	0xbe5956c2	-0.21224502
233	0x3eb7e2f8	0.3591535
234	0xbe799f50	-0.24377179
235	0x3e75d9cc	0.24008864
236	0x3d96d830	0.07365453
237	0xbe0d3406	-0.13789377
238	0xbeae3ce2	-0.34030825
239	0x3db04b64	0.086081296
240	0x3e6bb930	0.23019862
241	0x3e2635b8	0.1623143
242	0xbe932e48	-0.28746247
243	0x3eb85656	0.3600337
244	0x3d342820	0.04398358
245	0xbd97f110	-0.07419026
246	0x3e8cc378	0.2749288
247	0xbd072fa8	-0.033004433
248	0x3eca78e8	0.3954537
249	0x3e9f0828	0.3106091
250	0x3d2d78b0	0.042351425
251	0x3e114704	0.14187247
252	0xbebbc51a	-0.36673814
253	0xbe9ffcf0	-0.31247663
254	0x3e35af84	0.17742735
255	0x3e11e1e0	0.1424632

fc1.bias f4 [128]
0	0xbd81b174	-0.063326746
1	0xbe95b4a8	-0.29239392
2	0x3e0a516c	0.13507622
3	0xbeb0e2e8	-0.34548116
4	0xbd8cd258	-0.068760574
5	0xbe350894	-0.17679054
6	0xbe907388	-0.28213143
7	0x3de08db0	0.10964525
8	0xbebabebd	-0.36473647
9	0xbb27b780	-0.0025591552
10	0x3ec0d31e	0.3766107
11	0xbe9e616a	-0.30933696
12	0x3eb95e72	0.3620487
13	0xbe874ec0	-0.2642727
14	0x3e3660c0	0.17810345
15	0x3e736cb0	0.2377193
16	0xbe6e623c	-0.23279661
17	0x3e891738	0.26775527
18	0x3ddae940	0.1068902
19	0xbe006126	-0.12537059
20	0xbe880462	-0.26565844
21	0x3e5e48ac	0.2170741
22	0x3e4f0c94	0.20219642
23	0xbdb2258c	-0.08698568
24	0x3ec02016	0.3752448
25	0xbe559cd6	-0.2086061
26	0x3e158a38	0.14603508
27	0xbcccd590	-0.025004178
28	0x3db27c44	0.08715108
29	0x3cc87650	0.024470478
30	0xbca06c90	-0.019583017
31	0xbe4ab93d	-0.19797225
32	0x3e94a0aa	0.29028827
33	0xbe9f9a40	-0.3117237
34	0x3eb7fe50	0.35936213
35	0x3e2a3f28	0.16625655
36	0x3c8d4a60	0.017247379
37	0x3ea2c2ca	0.31789237
38	0xbe3450e4	-0.17608982
39	0xbd854fc0	-0.06509352
40	0xbe8edce8	-0.27902913
41	0x3e48d288	0.19611561
42	0x3dcefb68	0.10106546
43	0xbebd28c0	-0.36945152
44	0x3ebcf2f8	0.3690412
45	0xbea008b0	-0.31256628
46	0x3e8a51da	0.27015573
47	0xbe8d87cc	-0.27642667
48	0xbe97c920	-0.29645634
49	0xbe3e3a97	-0.18577038
50	0xbceb09e0	-0.028691232
51	0x3eab3606	0.33439654
52	0x3e10f7f4	0.14157087
53	0x3e5adc10	0.2137301
54	0x3e3b4170	0.18286681
55	0xbe97866d	-0.29594746
56	0xbe9bb310	-0.3041005
57	0x3e5d1000	0.21588135
58	0xbec31d43	-0.38108262
59	0x3ec9243c	0.39285457
60	0xbde999a4	-0.11406258
61	0x3ec36932	0.38166195
62	0xbe9241f7	-0.28565952
63	0x3e956110	0.29175615
64	0xbe4a73fa	-0.19770804
65	0x3ec5dfdc	0.38647354
66	0x3e8304cc	0.25589597
67	0x3eb4059a	0.35160524
68	0xbc508d20	-0.012728959
69	0xbebeef83	-0.37292108
70	0xbddad994	-0.10686031
71	0xbe9ea412	-0.3098455
72	0xbe3ad6f9	-0.18246068
73	0x3eb0404a	0.3442405
74	0x3e2ad0ec	0.1668126
75	0x3e81dcfa	0.25363904
76	0xbec688e3	-0.3877631
77	0xbe92d33e	-0.2867679
78	0xbd5579d0	-0.052118123
79	0xbd71ca30	-0.05903071
80	0x3ec84b52	0.39119965
81	0xbe31eb86	-0.17375001
82	0xbea4f28f	-0.32216308
83	0x3d455000	0.048171997
84	0x3d9d89d4	0.07692304
85	0x3eb0403a	0.34424
86	0x3e430d44	0.19048029
87	0xbe6b2ea6	-0.22967014
88	0xbe8a396c	-0.26996934
89	0xbdadcd6c	-0.08486447
90	0xbe7c9400	-0.24665833
91	0x3e5e8c14	0.21733123
92	0xbec1ad03	-0.3782731
93	0xbe6b1bb4	-0.22959787
94	0x3e8c6ca2	0.2742663
95	0x3dc13dd8	0.09435624
96	0xbe2c84f1	-0.16847588
97	0xbdc3b6d0	-0.09556353
98	0x3d95b600	0.07310104
99	0x3ecfe0cc	0.40601194
100	0x3e3f015c	0.18652862
101	0x3e2bde80	0.16784096
102	0x3d8cc398	0.06873244
103	0xbe557515	-0.20845445
104	0x3c9e1be0	0.019300401
105	0x3e1d6f9c	0.15374607
106	0xbe1dc6e4	-0.15407902
107	0xbea1f523	-0.31632337
108	0x3c861500	0.016367435
109	0xbe90097e	-0.28132242
110	0xbdd6c328	-0.10486442
111	0xbe8ff664	-0.2811767
112	0x3ecebfa6	0.4038059
113	0x3e639768	0.22225726
114	0x3d97430c	0.07385835
115	0xbec8fdc3	-0.39256105
116	0xbb05fa00	-0.00204432
117	0x3ecf4c8e	0.40488094
118	0x3cfa0a60	0.030522525
119	0xbebeffd3	-0.37304553
120	0x3ddb4838	0.10707134
121	0x3e6ab148	0.2291919
122	0x3e1148bc	0.14187902
123	0x3e2d6348	0.16932404
124	0xbe7a069c	-0.24416584
125	0x3dc90710	0.098158
126	0xbe65a087	-0.22424518
127	0xbe82479e	-0.25445265

fc2.weight f4 [64, 128]
0	0x3d94f62b	0.07273515
1	0x3d42275e	0.047400825
2	0x3db369d9	0.08760423
3	0x3d682bba	0.056682326
4	0x3cc8af2c	0.024497591
5	0xbcab8194	-0.020935811
6	0x3d193e96	0.037413202
7	0x3d022624	0.031774655
8	0xbd9ebdcf	-0.07751047
9	0xbd915686	-0.07096581
10	0xbd331681	-0.043722633
11	0xbd8d97ec	-0.069137424
12	0xbd01a2ad	-0.03164928
13	0x3da997a9	0.0828088
14	0xbd2a9cdf	-0.04165351
15	0x3cd6e160	0.026230514
16	0x3bb9d5a0	0.005671218
17	0xbd1124fb	-0.035435658
18	0xbc89d08c	-0.016823076
19	0xbd80218c	-0.062563986
20	0xbc288fc0	-0.010288179
21	0x3d248cce	0.040173344
22	0xba85b440	-0.0010200813
23	0xbd85ef18	-0.06539744
24	0x3a042c80	0.00050420314
25	0x3d8b97bd	0.06816051
26	0xbbea2340	-0.0071453154
27	0x3c8bda04	0.017071731
28	0x3ca4fa84	0.020138986
29	0xbd074a99	-0.033030126
30	0x3c08fbb8	0.008360796
31	0x3cb0e8a0	0.0215953
32	0x3dac1a6b	0.08403476
33	0x3da55e4f	0.080746286
34	0x3d7c365a	0.06157527
35	0xbdacde87	-0.08440881
36	0x3c7b2bb0	0.01533024
37	0xbd158ac8	-0.036509305
38	0x3d4a0472	0.049320646
39	0xbda8f165	-0.08249167
40	0xbd98f82a	-0.074692085
41	0xbbe0c1a0	-0.0068590194
42	0xbdacde80	-0.08440876
43	0xbcb26d2c	-0.021780573
44	0xbc95977c	-0.01826071
45	0x3d1fdf52	0.039031334
46	0xbc296b10	-0.010340467
47	0x3cf57a90	0.029965669
48	0x3dad43ab	0.08460172
49	0xbd86eef3	-0.06588545
50	0x3c746f60	0.014919132
51	0x37afe000	2.0965934e-05
52	0x3b6b0ca0	0.003586568
53	0x3da6f685	0.081524886
54	0xbdb249ee	-0.08705507
55	0xb9a06300	-0.0003059134
56	0xbd4c5283	-0.049883377
57	0x3d296a72	0.04136128
58	0x3d6ea346	0.05826118
59	0x3db35bdf	0.087577574
60	0xbd39928f	-0.045305785
61	0x3bd61f10	0.0065344647
62	0x3d752522	0.059849866
63	0xbd0ba913	-0.03409679
64	0x3d882a07	0.06648641
65	0x3d12f748	0.035880357
66	0x3d8d3d67	0.06896477
67	0x3d7112aa	0.05885569
68	0x3d8cb997	0.06871336
69	0x3b870ad0	0.004121162
70	0xbc23b6c0	-0.009992301
71	0xbca13ebc	-0.019683234
72	0xbd887c9a	-0.06664391
73	0xbc873350	-0.01650396
74	0x3c9e9ab0	0.01936087
75	0xbd95da51	-0.07317031
76	0xbcce5f80	-0.025192022
77	0x3d7ab736	0.06120988
78	0x3d180bfe	0.03712081
79	0x3bc62020	0.00604631
80	0x3c331740	0.010930836
81	0x3d9ec5eb	0.077525936
82	0x3d993427	0.074806504
83	0xbcf2c216	-0.029633563
84	0x3d36322e	0.04448145
85	0xbca36a1c	-0.019948058
86	0x3d16ee4e	0.03684836
87	0x3cdaeb6c	0.026723586
88	0x3bbbef60	0.005735323
89	0xbd779bfa	-0.060451485
90	0x3d2ccd76	0.04218813
91	0xbca04000	-0.019561768
92	0xbda1126c	-0.07864842
93	0x3bb2ad10	0.0054527596
94	0x3d97b85d	0.074082114
95	0x3d384d36	0.04499551
96	0x3d85a831	0.065262206
97	0xbca64e70	-0.020301074
98	0xbd584af2	-0.05280585
99	0x3cfcb04c	0.030845784
100	0xbd0eb62f	-0.034841713
101	0x3c29e938	0.010370545
102	0xbd35d11e	-0.044388883
103	0x3db0ba95	0.08629338
104	0x3d6d594e	0.057946496
105	0x3da31a09	0.0796395
106	0xbd476552	-0.04868061
107	0x3d3379ba	0.04381726
108	0xbd78b83c	-0.060722575
109	0xbd3f5a2b	-0.04671685
110	0x3d186226	0.037202977
111	0x3d1913a2	0.03737224
112	0xbdac50ce	-0.0841385
113	0xbb5ab160	-0.0033369884
114	0x3d845ddd	0.064632155
115	0x3dad4f45	0.08462385
116	0x3b15bd20	0.0022848323
117	0xbd7a8416	-0.061161123
118	0x3c0c1190	0.008549109
119	0x3d7e6aee	0.062113695
120	0xbc1c7818	-0.009550117
121	0x3cdaaf14	0.026694812
122	0xbd43ba9a	-0.04778538
123	0xbdaf520e	-0.085605726
124	0xbda4d7c3	-0.08048966
125	0xbd980192	-0.074221745
126	0x3d3e763a	0.04649947
127	0x3d271562	0.040791877
128	0xbd0d91a4	-0.03456272
129	0x3cf040f8	0.029327855
130	0xbcca9bf0	-0.02473256
131	0xbbf620f0	-0.0075112507
132	0x3d719342	0.058978327
133	0xbbbb1710	-0.0057095364
134	0x3d4fc652	0.050726242
135	0xbd1c9174	-0.038224652
136	0x3c287bf0	0.010283455
137	0xbb76eb40	-0.003767684
138	0x3d9bf161	0.07614399
139	0xbd28a0a6	-0.04116883
140	0xbd522640	-0.05130601
141	0x3b93ea40	0.0045140088
142	0xba9474c0	-0.0011326298
143	0x3d9a6703	0.07539179
144	0xbc35e548	-0.011102028
145	0xbc9349e4	-0.01797957
146	0xbc9369e0	-0.017994821
147	0x3baac470	0.0052114055
148	0xbd27f581	-0.041005615
149	0xbd91d45c	-0.071205825
150	0x3d065268	0.032793432
151	0x3d4d51a6	0.050126694
152	0xbca86e04	-0.020560272
153	0xbdab08f4	-0.08351317
154	0x3be4f7e0	0.006987557
155	0xbc942c04	-0.018087395
156	0xbd940b82	-0.072287574
157	0xbd4e43f6	-0.05035778
158	0xbbba31a0	-0.0056821853
159	0xbc26ee68	-0.010188676
160	0x3db2ccf1	0.08730496
161	0xbd9df0ea	-0.07711966
162	0xbd692d01	-0.056927685
163	0xbd332246	-0.043733858
164	0xbcd12b68	-0.025533393
165	0xbd9957ac	-0.07487425
166	0xbd3d6b7e	-0.04624509
167	0x3c58b748	0.013227291
168	0x3d90eabf	0.07076024
169	0x3d08cf3a	0.03340075
170	0xbbb3bbf0	-0.0054850504
171	0x3d89e1f7	0.067325525
172	0xbc9e7c74	-0.019346453
173	0x3c9676c0	0.018367171
174	0x3d8229cf	0.063556306
175	0x3d9f1f6d	0.07769666
176	0xbd93967d	-0.07206438
177	0xbd15d6a4	-0.03658165
178	0xbd567200	-0.052354813
179	0x3ac5ec80	0.001510039
180	0xbd5bb6cc	-0.053641126
181	0xbd781cb8	-0.060574263
182	0x3c984aa8	0.018590286
183	0x3c0791f0	0.00827454
184	0xbd095cd1	-0.033535782
185	0x3ce274f8	0.027643666
186	0x3db2fdb7	0.087397985
187	0xba85dac0	-0.0010212287
188	0x3c543ac8	0.012953468
189	0x3d4db6aa	0.05022303
190	0x3da99bc3	0.08281662
191	0x3d528952	0.05140049
192	0xbd1af95d	-0.037835468
193	0xbd850ae6	-0.06496219
194	0x3d19cede	0.0375508
195	0xbd79846a	-0.060917296
196	0xbd01eebf	-0.031721827
197	0x3c716cf0	0.014735445
198	0xbcdf6600	-0.027270317
199	0xbd6905ed	-0.056890417
200	0x3d3feca2	0.04685653
201	0xbd9e88e1	-0.07740951
202	0x3d1ebcae	0.038754158
203	0xbce5c332	-0.028047178
204	0xbc0d0cf8	-0.008609049
205	0xbd8afb0a	-0.06786163
206	0x3beae200	0.0071680546
207	0xbd9ea66f	-0.077465884
208	0xbcd8aebc	-0.026450507
209	0xbcf9a854	-0.030475773
210	0xbcfb465e	-0.030673202
211	0xbc1cf980	-0.00958097
212	0xbcbbe930	-0.02293834
213	0xbd71a098	-0.058991045
214	0xbd672b7a	-0.056437947
215	0xbd8ff80d	-0.07029734
216	0x3cb8055c	0.022463493
217	0xbd31d232	-0.04341335
218	0x3bc874e0	0.006117448
219	0xbccf74fc	-0.025324337
220	0x3db0add5	0.08626906
221	0x3d39d4f2	0.045369096
222	0x3a834dc0	0.0010017678
223	0xbd8647ea	-0.06556685
224	0x3cf7ae20	0.030234396
225	0x3da25b23	0.07927539
226	0xbb88b610	-0.004172094
227	0x3c93bde8	0.01803489
228	0x3d01567e	0.031576626
229	0xbd9ca149	-0.0764795
230	0xbd7f4712	-0.062323637
231	0xbda75d08	-0.08172041
232	0xbd2bea3f	-0.04197144
233	0xbd272a20	-0.040811658
234	0xbd2b2caa	-0.04179064
235	0x3d8d0f7d	0.0688772
236	0x3ce3d2c8	0.02781047
237	0xbda96244	-0.08270696
238	0xbda2bdff	-0.07946395
239	0x3d90c2c7	0.07068401
240	0x3cbff9ac	0.023434483
241	0x3d3682d6	0.04455837
242	0x3d30111a	0.04298506
243	0x3cd87ea8	0.026427582
244	0x3bb6e140	0.005581051
245	0xbce4a504	-0.027910717
246	0x3d97764d	0.07395611
247	0x3cb1e6ac	0.021716438
248	0xbc8e4664	-0.01736755
249	0x3ce71cc4	0.028211959
250	0xbda969ad	-0.08272109
251	0xbd9760ff	-0.073915474
252	0xbcb864a4	-0.022508927
253	0x3d881f1d	0.066465594
254	0x39940900	0.00028235465
255	0xbdabba8c	-0.0838519

fc2.bias f4 [64]
0	0x3d9e4ae3	0.07729127
1	0xbdb47adf	-0.08812498
2	0x3d3871ea	0.045030512
3	0xbd9bdc38	-0.07610363
4	0x3c63b668	0.0138984695
5	0xbd4f0a21	-0.05054677
6	0x3c74c820	0.014940292
7	0xbd4d22f7	-0.050082173
8	0xbd9357c0	-0.07194471
9	0x3c901134	0.017586328
10	0xbd99c527	-0.07508307
11	0xbd9aa4dd	-0.075509764
12	0xbd94c091	-0.072632916
13	0x3d9ee5c3	0.07758667
14	0xbc398bf0	-0.011324868
15	0xbd9bec88	-0.07613474
16	0xbc988c30	-0.018621534
17	0x3d461852	0.048363037
18	0x3d404b8e	0.046947055
19	0xbda2f3b7	-0.07956641
20	0x3daef26d	0.08542333
21	0x3d4440d2	0.04791338
22	0x3d6f8702	0.058478363
23	0xbd314d62	-0.04328669
24	0xbb9a65e0	-0.0047118515
25	0x3d8936bb	0.06699892
26	0xbd9bde91	-0.076108105
27	0x3c4d27f8	0.012521736
28	0x3cafacb8	0.021444663
29	0xbdaedd30	-0.08538282
30	0xbd224f49	-0.039626393
31	0x3c3c5db8	0.011496954
32	0x3d2469c6	0.040139936
33	0xbd79c88a	-0.060982265
34	0xbd286b4e	-0.04111796
35	0xbd0c3603	-0.034231197
36	0x3da4919d	0.08035586
37	0xbd6c14b1	-0.05763692
38	0x3aa54e80	0.0012611896
39	0xbcf8adba	-0.030356277
40	0x3d9c4f4d	0.07632313
41	0xbc2679c8	-0.010160871
42	0x3d0233e0	0.031787753
43	0xbd27918d	-0.040910292
44	0xbd63676a	-0.055518545
45	0x3d7d49a2	0.0618378
46	0xbd73a5a2	-0.05948413
47	0x3bc01020	0.0058612972
48	0x3d8f3e87	0.06994348
49	0x3b048420	0.0020220354
50	0x3c262cb0	0.01014249
51	0x3d616a9a	0.055033304
52	0x3c715668	0.0147300735
53	0xbcc3b1a0	-0.02388841
54	0x3b08b1a0	0.0020857826
55	0x3d95ae23	0.073086046
56	0xbcc38eb8	-0.023871765
57	0xbcc4c338	-0.024018869
58	0xbcf79ec0	-0.030227065
59	0x3d5b4c3a	0.053539492
60	0x3d64c092	0.05584771
61	0xbc204b70	-0.009783611
62	0xbda67993	-0.08128657
63	0x3db06287	0.086125426

fc3.weight f4 [2, 64]
0	0xbdf52cb4	-0.11971417
1	0x3d65c4f0	0.056096017
2	0x3d1553e8	0.036456972
3	0xbd839ba6	-0.06426172
4	0x3d0e07f4	0.034675553
5	0xbca37568	-0.019953445
6	0x3dfa153e	0.12211083
7	0xbb162640	-0.0022910982
8	0xbd5d1bdc	-0.053981647
9	0xbcc99ab0	-0.024609894
10	0x3de6f3b0	0.112769485
11	0x3df7457a	0.120737985
12	0x3d7dba74	0.061945394
13	0xbd56aea4	-0.052412644
14	0xbcc95500	-0.024576664
15	0xbd03b2d0	-0.03215295
16	0xbd8a6086	-0.06756692
17	0x3da87e32	0.08227195
18	0xbd727570	-0.05919403
19	0xbdeca936	-0.11555712
20	0x3d457238	0.04820463
21	0x3c131790	0.008977786
22	0xbdf62a5e	-0.120198
23	0xbc641fa0	-0.013923556
24	0x3dcb35d8	0.09922379
25	0x3ccd2b78	0.025045142
26	0x3dd0b75a	0.101912215
27	0x3c8767e0	0.016529024
28	0xbd1dada4	-0.038495675
29	0x3d83ebda	0.064414695
30	0x3d4c6484	0.049900547
31	0xbd89dec0	-0.06731939
32	0x3d8d1b54	0.06889978
33	0xbdc5e7ec	-0.09663376
34	0xbdd58aac	-0.1042684
35	0x3dabf5aa	0.08396466
36	0x3d34d328	0.044146687
37	0xbdafadac	-0.08578047
38	0xbd4838ec	-0.04888241
39	0xbd9584ae	-0.07300697
40	0x3dbcb088	0.09213358
41	0x3d206a98	0.039164156
42	0x3d96d1ce	0.07364236
43	0xbc785130	-0.015156075
44	0xbdb158a0	-0.08659482
45	0xbdd96ed4	-0.10616842
46	0x3db2fe32	0.0873989
47	0x3ddb02a0	0.1069386
48	0x3de46c1a	0.11153431
49	0x3d975fc2	0.07391311
50	0xbdfa25a6	-0.12214212
51	0x3d327bf4	0.043575242
52	0x3cdd6ba0	0.027028859
53	0x3d4f1a6c	0.050562307
54	0x3dc95406	0.09830479
55	0x3dda431a	0.1065733
56	0x3d23a43c	0.039951548
57	0xbd60cc30	-0.05488223
58	0xbdd54208	-0.10412985
59	0x3db13b5e	0.086539015
60	0x3dd14886	0.10218911
61	0x3c98c1c8	0.01864709
62	0x3c3083d0	0.010773614
63	0xbda1343e	-0.078712925
64	0xbd700078	-0.058594197
65	0x3dbdf5f6	0.09275429
66	0x3be49240	0.006975442
67	0xbdb62e36	-0.08895533
68	0xbd819052	-0.06326355
69	0x3dc7228c	0.09723386
70	0xbce720c0	-0.028213859
71	0x3d61f60c	0.05516629
72	0xbd0292cc	-0.031878278
73	0xbb720c00	-0.0036933422
74	0x3dcf294a	0.10115297
75	0x3d8208c0	0.06349325
76	0xbda8fd74	-0.08251467
77	0x3c9c4b30	0.019078821
78	0xbddf06d8	-0.10889977
79	0x3db8d08c	0.09024152
80	0xbdf8a332	-0.12140502
81	0x3cbb2e20	0.022849143
82	0x3d950d76	0.07277958
83	0x3d141170	0.036149442
84	0xbc127b00	-0.008940458
85	0x3ca9a290	0.020707399
86	0xbdaeeb60	-0.08540988
87	0x3d6703ec	0.056400225
88	0xbd8ed830	-0.06974828
89	0xbd165640	-0.03670335
90	0x3d7c8ee0	0.061659694
91	0xbd9cfca8	-0.07665378
92	0x3dd9f668	0.106427014
93	0xbd95e736	-0.073194906
94	0x3d358368	0.044314772
95	0x3dd61b36	0.10454409
96	0xbd948052	-0.07251038
97	0xbd81f81c	-0.06346151
98	0x3de379a8	0.111071885
99	0xbd139e4c	-0.036039636
100	0x3dcc46a0	0.09974408
101	0x3dd90cc0	0.10598135
102	0xbd8cc070	-0.06872642
103	0xbc01dbc0	-0.007925928
104	0xbd981d98	-0.074275196
105	0xbde2692a	-0.11055215
106	0xbd11267c	-0.035437092
107	0xbd088efc	-0.033339486
108	0x3dc04da4	0.09389809
109	0xbd6b3af0	-0.057429254
110	0xbd832868	-0.06404191
111	0x3d907c84	0.070549995
112	0x3d271a04	0.040796295
113	0x3dd743fa	0.105110124
114	0xbda98062	-0.0827644
115	0x3bd94e60	0.0066316575
116	0x3dc40a70	0.09572303
117	0x3c959978	0.018261656
118	0xbd902436	-0.07038157
119	0x3db56ad6	0.08858268
120	0xbda4212a	-0.08014138
121	0xbdd510e6	-0.10403614
122	0xbde307b4	-0.11085454
123	0x3d506084	0.050873294
124	0x3de1989e	0.110154375
125	0x3b97df00	0.004634738
126	0xbdf4c37a	-0.11951347
127	0xbd900c3e	-0.07033585

fc3.bias f4 [2]
0	0xbd9b328a	-0.07577999
1	0x3db2aacc	0.08723983
