wa_backend/WA_Model/model_trend_based.pth (torch, 40812 bytes, 6 tensors)

fc1.weight f4 [128, 8]
-0.010713291 -0.24328697 -0.24176192 0.20556292 0.27749583 0.06926297 0.24164546 -0.07869104
0.23814097 -0.16320135 -0.25802165 -0.3453126 -0.0021149495 -0.09066049 0.21777461 0.022550806
0.037401825 0.031666458 0.11892638 0.19702724 -0.019437661 0.29074678 0.1833563 -0.20787908
0.32666653 0.34715042 0.084732726 -0.07412231 -0.2229664 -0.1311178 -0.01790551 -0.09273328
-0.0942899 -0.025952617 0.0006578914 -0.041842237 -0.03541317 -0.34084374 -0.42361253 -0.13972148
0.41271672 -0.20155191 -0.1996095 0.16829792 -0.099783264 -0.34201407 -0.34363928 0.00076679105
0.2284014 -0.35403123 0.08108027 -0.13597175 0.3588491 -0.08825833 0.053032868 -0.10905075
-0.0048946445 0.12715498 0.32959396 0.0040784245 0.54459226 -0.41412085 0.021098383 0.06908764
0.14916204 -0.27506036 -0.3342129 -0.16274995 0.35450214 0.024791198 0.10392791 0.17545426
-0.0031284515 0.36245105 -0.009266942 -0.2644999 -0.0104073435 -0.25016275 0.134658 0.13245124
0.19686712 -0.17823398 0.1886637 0.2452978 -0.35158414 0.29541844 -0.17970994 0.12808706
-0.1986308 -0.036830533 -0.14276028 0.0852849 0.29585195 0.29802647 -0.069979295 -0.08597476
-0.23902589 0.39178976 0.37142244 0.0824759 -0.31954303 0.26033047 0.06629879 0.068309255
0.17465591 0.2506584 0.0072019617 -0.014330832 0.2536188 -0.27352083 -0.13585216 0.2328586
-0.052922104 0.18745045 0.022471813 0.12655604 0.10368662 -0.25443473 0.016939407 0.022244645
-0.37104806 -0.121076435 0.1988274 0.037326902 0.41833845 0.023276065 -0.14022434 -0.19407268
-0.186705 0.21771155 0.02458972 -0.26146263 0.19070679 -0.079972245 0.09888457 -0.28317103
-0.06859618 0.1301288 -0.065922745 -0.009907499 0.21095756 -0.22921672 0.0002503272 -0.04020886
0.2900029 -0.25031096 0.1737682 0.13003904 0.10710818 0.035223417 0.13727109 -0.18805873
0.032891743 -0.0025402172 -0.19712803 -0.008251356 -0.45958027 -0.2740505 -0.14537422 0.07752747
0.053312708 -0.24563853 -0.08378934 -0.11674473 0.0042039575 0.34312227 0.25363794 0.22726852
0.05904014 0.17532542 0.11625457 0.24600026 0.4311503 -0.16922562 -0.066468745 -0.061360937
-0.1809305 0.11888892 -0.3266098 -0.17185378 -0.08288052 -0.07882363 0.079762146 -0.028269492
0.1713764 -0.0554729 -0.2091406 -0.25270873 -0.40833256 -0.0021790771 0.122822754 -0.0482681
-0.14315127 0.26726675 -0.078370854 -0.07365473 -0.18690115 -0.26032245 -0.25530043 -0.13055243
-0.10826196 -0.15134594 -0.3306017 0.096624225 -0.1406691 -0.23323314 -0.21989502 -0.0032167083
0.18534064 0.3089493 -0.20356025 -0.08211605 0.055216324 0.079329416 0.008518149 -0.05239498
-0.009773359 0.17695422 0.08587339 -0.07657397 0.07446822 -0.37868038 -0.16784795 0.46696463
-0.059799578 0.3364886 0.19001277 0.20243903 -0.20219027 0.10919276 0.26159397 0.04891446
0.023372483 0.068008535 -0.28972727 0.23692535 -0.34213513 -0.36024308 0.2897569 -0.25567263
0.21955326 -0.007809177 -0.21835572 -0.17383794 -0.30082366 0.07007287 -0.0013310895 -0.19609189
-0.20476954 0.029518537 -0.12723479 -0.04287644 0.32859617 0.22207649 0.053606927 0.2516589
00000000: cd86 2fbc 3820 79be 7090 77be 167f 523e
00000010: ef13 8e3e bed9 8d3d e871 773e c528 a1bd
00000020: 3adb 733e 411e 27be 6a1b 84be d0cc b0be
00000030: f79a 0abb 35ac b9bd 4f00 5f3e 78bc b83c
00000040: a832 193d b0b4 013d ad8f f33d 82c1 493e
00000050: bb3b 9fbc c3dc 943e c1c1 3b3e 41de 54be
00000060: d640 a73e b3bd b13e 5a88 ad3d 70cd 97bd
00000070: 4e51 64be bf43 06be 93ae 92bc f2ea bdbd
00000080: 101b c1bd 959a d4bc 5876 2c3a c462 2bbd
00000090: 660d 11bd 1283 aebe bee3 d8be 2613 0fbe
000000a0: 9b4f d33e a063 4ebe 6f66 4cbe 4a56 2c3e
000000b0: 2b5b ccbd 781c afbe 7df1 afbe 7a02 493a
000000c0: 0ee2 693e 9543 b5be 6a0d a63d 2e3c 0bbe
000000d0: 12bb b73e c9c0 b4bd fe38 593d 0056 dfbd
000000e0: 4163 a0bb ea34 023e 8ac0 a83e 4ea4 853b
000000f0: 666a 0b3f a607 d4be 84d6 ac3c d27d 8d3d
00000100: efbd 183e b6d4 8cbe f41d abbe eca7 26be
00000110: 4e81 b53e e916 cb3c 28d8 d43d 48aa 333e
00000120: b506 4dbb 2f93 b93e 5fd4 17bc 886c 87be
00000130: 9083 2abc 5515 80be c9e3 093e 4ca1 073e
00000140: 8997 493e f882 36be 0f31 413e 592f 7b3e
00000150: d602 b4be 1641 973e e205 38be 4129 033e
00000160: df65 4bbe 9ddb 16bd c02f 12be daa9 ae3d
00000170: e879 973e ed96 983e 4e51 8fbd 8913 b0bd
00000180: 34c3 74be ab98 c83e 152b be3e 20e9 a83d
00000190: 259b a3be 094a 853e a9c7 873d b9e5 8b3d
000001a0: 00d9 323e 4c56 803e 6ffe eb3b decb 6abc
000001b0: 53da 813e ec0a 8cbe d41c 0bbe 7c72 6e3e
000001c0: d9c4 58bd 03f3 3f3e cf16 b83c e897 013e
000001d0: a759 d43d 4545 82be 83c4 8a3c 673a b63c
000001e0: 03fa bdbe ecf6 f7bd 6999 4b3e 18e4 183d
000001f0: 7530 d63e 72ad be3c f896 0fbe fdba 46be
00000200: 982f 3fbe c7ef 5e3e 6170 c93c 6ede 85be
00000210: a448 433e 7dc8 a3bd fe83 ca3d cbfb 90be
00000220: 277c 8cbd 7c40 053e 8102 87bd 1053 22bc
00000230: 4205 583e cab7 6abe 593e 8339 0cb2 24bd
00000240: 437b 943e c228 80be 4bf0 313e f428 053e
00000250: 895b db3d 6e46 103d cb90 0c3e 7892 40be
00000260: 7eb9 063d c679 26bb eedb 49be b230 07bc
00000270: 1b4e ebbe 5950 8cbe fbdc 14be b9c6 9e3d
00000280: 6d5e 5a3d ab88 7bbe bf99 abbd dc17 efbd
00000290: 5ac1 893b b9ad af3e d5dc 813e 14b9 683e
000002a0: 13d4 713d 8288 333e e016 ee3d 7ee7 7b3e
000002b0: bbbf dc3e 7b49 2dbe c420 88bd 9b55 7bbd
000002c0: d845 39be 097c f33d 6639 a7be 70fa 2fbe
000002d0: 43bd a9bd 496e a1bd 565a a33d 6c95 e7bc
000002e0: 4c7d 2f3e 8d37 63bd f428 56be 0a63 81be
000002f0: f710 d1be d9ce 0ebb 7f8a fb3d c5b4 45bd
00000300: 3f96 12be 30d7 883e e680 a0bd 4bd8 96bd
00000310: 0463 3fbe fc48 85be bdb6 82be 89af 05be
00000320: 72b8 ddbd 6efa 1abe a044 a9be ece2 c53d
00000330: 900b 10be abd4 6ebe 292c 61be 69cf 52bb
00000340: f0c9 3d3e 9a2e 9e3e 1972 50be 762c a8bd
00000350: 832a 623d 7677 a23d b58f 0b3c 1e9c 56bd
00000360: 7020 20bc 7d33 353e 63de af3d d0d2 9cbd
00000370: cb82 983d 65e2 c1be 55e0 2bbe fd15 ef3e
00000380: 67f0 74bd 3c48 ac3e b592 423e 2d4c 4f3e
00000390: f70a 4fbe 74a0 df3d a5ef 853e 875a 483d
000003a0: a677 bf3c 0f48 8b3d 2257 94be 8f9c 723e
000003b0: 562c afbe c871 b8be 045b 943e 86e7 82be
000003c0: 92d2 603e 20e4 ffbb a498 5fbe 9302 32be
000003d0: 8f05 9abe 5d82 8f3d f477 aeba 50cc 48be
000003e0: 1baf 51be dcd0 f13c d649 02be 359f 2fbd
000003f0: c23d a83e 0568 633e f092 5b3d 6fd9 803e

fc1.bias f4 [128]
0.04518582 -0.5943133 -0.04421569 -0.065885 -0.3031999 -0.36119005 -0.23692293 -0.11014421
0.1697534 0.16866355 -0.054061893 -0.022700667 -0.22365971 0.23012027 0.09386344 0.014756087
-0.5598052 0.033683926 -0.1842501 -0.26646668 -0.14113197 -0.053645797 0.17982171 0.04594419
-0.42964 0.031096663 0.097407475 -0.27355498 -0.020306213 -0.40181616 0.32420415 0.009919606
0.00674997 0.36461264 0.10683939 0.061275188 -0.33150125 -0.10352579 -0.29028064 -0.18653955
0.17611597 -0.20606785 -0.42194405 -0.34286553 0.08342741 0.044021785 0.31886628 -0.25473323
-0.11240286 -0.26282746 0.12874797 0.098982766 -0.33044568 -0.11771896 0.15268663 0.29256088
0.17788371 0.1682017 -0.007505812 0.22544529 -0.08994235 0.016272211 -0.35227752 -0.37865317
-0.5069848 0.071803756 -0.22663833 0.2275114 -0.2989089 0.052142974 -0.07502124 0.018837662
-0.2958287 -0.17531544 0.032709956 0.04642528 0.038974352 0.3153451 0.29641482 -0.21954699
0.17342038 0.02398047 -0.058012813 -0.14001445 0.20722345 -0.21198316 0.262802 0.09331556
0.0018646796 0.21467097 -0.21699424 -0.17553964 -0.03111722 -0.29696757 0.11926807 -0.10019156
-0.4084531 -0.09113934 -0.14628735 0.24057326 -0.43085656 0.28960538 -0.081533484 -0.3417793
-0.006576191 0.10647946 0.14181776 -0.09660611 -0.23145188 0.19980434 -0.25708142 0.12015106
-0.20938882 -0.06994258 0.077495046 -0.31588742 -0.14781344 -0.08115133 -0.27924478 -0.07341991
-0.30443025 0.18155652 0.045080896 -0.38173518 0.20238133 -0.35149243 -0.5155812 -0.14284931
00000000: c414 393d eb24 18bf 831b 35bd b7ee 86bd
00000010: 043d 9bbe e7ed b8be ed9b 72be 4a93 e1bd
00000020: d6d3 2d3e 23b6 2c3e 0170 5dbd c0f6 b9bc
00000030: 0d07 65be a6a4 6b3e 7a3b c03d 84c3 713c
00000040: 654f 0fbf 28f8 093d 0fac 3cbe 526e 88be
00000050: e684 10be b2bb 5bbd 2f23 383e fa2f 3c3d
00000060: c6f9 dbbe 6ebe fe3c 927d c73d 660f 8cbe
00000070: 3759 a6bc d9ba cdbe 16fe a53e d885 223c
00000080: da2e dd3b 82ae ba3e 9cce da3d b1fb 7a3d
00000090: 88ba a9be 5405 d4bd aa9f 94be 3904 3fbe
000000a0: bf57 343e 7303 53be 0d09 d8be 128c afbe
000000b0: fddb aa3d 3050 343d 7142 a33e 656c 82be
000000c0: 7833 e6bd 5291 86be 82d6 033e 7ab7 ca3d
000000d0: 2d30 a9be a316 f1bd e259 1c3e 8aca 953e
000000e0: 2627 363e 113d 2c3e 51f3 f5bb 21db 663e
000000f0: b233 b8bd 4d4d 853c b85d b4be d4de c1be
00000100: c1c9 01bf d90d 933d e113 68be c0f8 683e
00000110: 960a 99be df93 553d bca4 99bd 7151 9a3c
00000120: dc76 97be e485 33be e0fa 053d 6f28 3e3d
00000130: 92a3 1f3d ea74 a13e afc3 973e edd0 60be
00000140: 1d95 313e b172 c43c d89e 6dbd f35f 0fbe
00000150: 6232 543e 1d12 59be fc8d 863e 3a1c bf3d
00000160: 4468 f43a b5d2 5b3e bd33 5ebe aac0 33be
00000170: 8ae9 febc 220c 98be d142 f43d 3c31 cdbd
00000180: c420 d1be 43a7 babd 5acc 15be d658 763e
00000190: 3b99 dcbe 2847 943e 07fb a6bd b2fd aebe
000001a0: 177d d7bb e711 da3d ad38 113e 6dd9 c5bd
000001b0: b901 6dbe 8299 4c3e 2da0 83be c211 f63d
000001c0: 066a 56be 0e3e 8fbd b9b5 9e3d ffbb a1be
000001d0: 685c 17be ab32 a6bd 2cf9 8ebe 2e5d 96bd
000001e0: 48de 9bbe f4e9 393e bfa6 383d cb72 c3be
000001f0: 0d3d 4f3e d1f6 b3be 21fd 03bf 1747 12be

fc2.weight f4 [64, 128]
0.03162117 0.13170803 -0.0041555613 0.012144916 0.03647783 0.033776272 0.05449744 -0.2368693
-0.059947804 -0.024856022 0.19936375 0.09532698 0.16041248 0.071549654 0.025548825 0.061053846
0.16932559 -0.07794072 -0.07202063 0.2134061 0.21013859 -0.14064743 0.017692264 0.08900367
0.07425188 0.11177912 -0.0332077 0.07196893 -0.029918093 0.24164164 0.12449582 -0.13973598
-0.16622867 -0.14092444 0.09541702 0.10330868 0.03575441 0.14818394 -0.014618493 0.08001446
-0.07537154 0.10086876 0.14591292 -0.16967508 0.14528939 -0.017699273 0.11828136 0.08822587
0.05915447 0.014012155 0.027154587 0.08501368 -0.097395584 -0.19162236 0.10945804 -0.08019248
0.11423983 0.012565559 -0.058659017 -0.25304496 -0.19091016 -0.06131048 -0.22529279 -0.025427744
-0.009234231 0.053609855 0.06396465 0.18434115 -0.13079773 0.046302285 0.06278889 0.16937287
0.12048495 0.09117926 -0.010857538 0.10503614 0.08869677 0.025628371 0.094554804 -0.1415254
0.036391612 0.039467346 0.0391097 -0.036110345 0.11130144 0.08701113 -0.012453347 0.090223484
-0.06928705 -0.14183637 0.18065107 -0.11417125 0.16657853 0.08619754 0.05812378 0.057358798
0.14656556 0.020602582 -0.06452239 -0.14295733 0.27019462 0.0009623631 0.0597117 -0.04439336
0.027658176 0.06838574 0.085709356 0.10305954 -0.023245899 0.062090665 0.18707457 0.05682557
-0.014630902 0.06843275 0.031822503 -0.02071732 0.16381696 -0.077668644 0.0898916 0.07872913
0.1436851 0.14676663 -0.027655816 0.16959825 -0.122046895 -0.012117929 0.06574112 0.12598369
0.011353717 -0.21903194 -0.067461036 0.0143504515 -0.053197403 -0.016146539 0.124008924 -0.033886604
0.053765707 -0.046685275 -0.12415051 -0.047347717 -0.12882525 -0.080018505 -0.056302726 -0.04517055
0.025053225 -0.064268716 0.021965638 -0.041363772 -0.060673073 0.055635422 -0.17119479 -0.039952032
0.0756718 -0.026115734 0.025640795 -0.14235768 -0.064390294 -0.024388373 -0.0831549 -0.029477397
0.011726582 -0.02880201 -0.10669337 -0.0309267 -0.039293945 0.0048865816 0.00583822 -0.018607374
0.05399904 -0.061815023 -0.10021961 -0.06560063 -0.068834096 -0.078405045 0.013599052 -0.01768556
0.08330298 -0.093122035 0.08391181 -0.07623982 0.024461195 0.057410065 0.049986128 0.050849218
-0.10338476 0.10789271 -0.115330316 0.0634258 -0.03891157 0.047751542 -0.024757 -0.10029406
0.059786268 -0.034312017 0.009588372 -0.057493236 -0.12189974 -0.019755675 0.050533608 0.026607417
-0.077173255 0.05311284 -0.059267268 -0.058762778 -0.029966606 -0.03436318 0.065078795 -0.059751526
-0.010460899 0.03589974 -0.05661803 -0.055409126 0.041169934 -0.117053606 -0.021997502 -0.013572481
-0.11020075 -0.08888781 0.0873858 -0.0021457274 -0.07384966 0.027855491 0.09678235 -0.08795558
-0.014386886 -0.11706246 -0.062193714 0.018303145 0.053518057 0.08117034 -0.16062362 -0.14819047
-0.03873694 -0.03387287 0.054073863 -0.049355548 0.029953487 0.027228534 -0.0153950285 0.047289297
0.08756234 0.080974676 0.0051558535 -0.09813734 -0.1639803 -0.13835412 -0.051709983 0.0822206
-0.11946977 -0.09939445 -0.06477098 -0.009258199 0.0683269 -0.06664498 -0.15208863 -0.011623157
00000000: 3385 013d 78de 063e 602b 88bb 78fb 463c
00000010: c769 153d fd58 0a3d b538 5f3d de8d 72be
00000020: d48b 75bd db9e cbbc 0326 4c3e cb3a c33d
00000030: 2b43 243e a088 923d c54b d13c 9913 7a3d
00000040: b063 2d3e 629f 9fbd 8d7f 93bd 2187 5a3e
00000050: 922e 573e e105 10be 5eef 903c 8e47 b63d
00000060: 5f11 983d 74ec e43d cc04 08bd 7264 933d
00000070: ca16 f5bc e870 773e aaf7 fe3d f316 0fbe
00000080: d937 2abe 7f4e 10be 006a c33d 8093 d33d
00000090: 3773 123d 88bd 173e 6782 6fbc 9fde a33d
000000a0: 655c 9abd 4894 ce3d 326a 153e 4ebf 2dbe
000000b0: bec6 143e 11fe 90bc 7f3d f23d c4af b43d
000000c0: f54b 723d 3d93 653c 4c73 de3c a71b ae3d
000000d0: 5677 c7bd a738 44be 892b e03d f43b a4bd
000000e0: 92f6 e93d c6df 4d3c 7044 70bd 1c8f 81be
000000f0: f47d 43be b320 7bbd 27b3 66be d84d d0bc
00000100: 2c4b 17bc 0296 5b3d e6ff 823d edc3 3c3e
00000110: d7ef 05be 77a7 3d3d 7697 803d 1570 2d3e
00000120: d0c0 f63d 31bc ba3d d1e3 31bc 301d d73d
00000130: a7a6 b53d 97f2 d13c f3a5 c13d 09ec 10be
00000140: 5f0f 153d 83a8 213d 7e31 203d 71e8 13bd
00000150: 02f2 e33d e432 b23d 2009 4cbc 17c7 b83d
00000160: 5ee6 8dbd 8e3d 11be 98fc 383e 9ed2 e9bd
00000170: 9093 2a3e 5688 b03d 3313 6e3d 0ff1 6a3d
00000180: 4815 163e bfc6 a83c 5124 84bd 6863 12be
00000190: f356 8a3e 1847 7c3a 4194 743d d0d5 35bd
000001a0: 6693 e23c d30d 8c3d 6388 af3d e110 d33d
000001b0: 2f6e bebc c852 7e3d 7a90 3f3e eec1 683d
000001c0: 73b6 6fbc 7826 8c3d 5058 023d 5eb7 a9bc
000001d0: a2bf 273e bd10 9fbd 1619 b83d bd3c a13d
000001e0: 3022 133e fe49 163e 738e e2bc 2aab 2d3e
000001f0: b9f3 f9bd 478a 46bc 48a3 863d de01 013e
00000200: f104 3a3c e949 60be 0329 8abd 281e 6b3c
00000210: 85e5 59bd bf45 84bc 64f8 fd3d aecc 0abd
00000220: 6e39 5c3d 0f39 3fbd 9f42 febd aeef 41bd
00000230: c4ea 03be bee0 a3bd b09d 66bd c104 39bd
00000240: 6c3c cd3c 519f 83bd 48f1 b33c 0f6d 29bd
00000250: 5484 78bd f8e1 633d b04d 2fbe bea4 23bd
00000260: d1f9 9a3d aaf0 d5bc a50c d23c 36c6 11be
00000270: 0fdf 83bd 20ca c7bc 1e4d aabd 957a f1bc
00000280: da20 403c 31f2 ebbc 0e82 dabd fe59 fdbc
00000290: b0f2 20bd 9e1f a03b 8a4e bf3b 7e6e 98bc
000002a0: 192e 5d3d c031 7dbd f03f cdbd a059 86bd
000002b0: e4f8 8cbd d392 a0bd 8fce 5e3c 4fe1 90bc
000002c0: c19a aa3d c4b6 bebd f4d9 ab3d 9f23 9cbd
000002d0: d862 c83c d126 6b3d 41be 4c3d 4547 503d
000002e0: 64bb d3bd daf6 dc3d 4d32 ecbd 63e5 813d
000002f0: bd61 1fbd 1f97 433d 31cf cabc f966 cdbd
00000300: 72e2 743d c28a 0cbd 8c18 1d3c 077e 6bbd
00000310: 92a6 f9bd a7d6 a1bc 54fc 4e3d ccf7 d93c
00000320: 030d 9ebd d98c 593d 3cc2 72bd 3db1 70bd
00000330: 877c f5bc 68c0 0cbd 0848 853d 04be 74bd
00000340: 3164 2bbc 9b0b 133d 4fe8 67bd aef4 62bd
00000350: cea1 283d cdb9 efbd 1b34 b4bc 1d5f 5ebc
00000360: eeb0 e1bd d00a b6bd 54f7 b23d 559f 0cbb
00000370: 7e3e 97bd 3331 e43c d335 c63d 0e22 b4bd
00000380: f9b6 6bbc 71be efbd d6be 7ebd 7af0 953c
00000390: c035 5b3d a33c a63d 857a 24be 3ebf 17be
000003a0: a0aa 1ebd 47be 0abd 8e7c 5d3d 0b29 4abd
000003b0: 0461 f53c 600e df3c 6e3b 7cbc 6cb2 413d
000003c0: e253 b33d 0dd6 a53d 6ff2 a83b 3bfc c8bd
000003d0: 74ea 27be b4ac 0dbe d9cd 53bd 4663 a83d
000003e0: 91ac f4bd 518f cbbd a6a6 84bd b3af 17bc
000003f0: f9ee 8b3d 2a7d 88bd 1fbd 1bbe 0e6f 3ebc

fc2.bias f4 [64]
-0.04134581 -0.07236398 -0.032244682 -0.028089352 0.015823968 0.1869768 0.07046425 -0.040247627
0.10842268 0.04779141 -0.0734381 0.094682105 0.09110393 0.0047058314 -0.0013669509 -0.09191313
0.1404565 -0.11113539 0.033751216 0.052620452 0.057111654 0.120933324 0.108671494 -0.052606758
-0.07038475 0.006404272 -0.12555628 -0.026835063 0.038955804 0.03714453 -0.11180095 -0.09126499
0.053637367 -0.042210292 -0.023260018 -0.009772243 0.1267569 0.09767663 0.018140426 -0.11123934
-0.16279988 0.12067657 -0.05342485 0.04538806 -0.06400518 0.037727248 0.10641231 -0.09955213
0.060513843 0.076950654 -0.03367031 0.03199546 0.13424197 -0.016731098 -0.10570723 -0.01650257
-0.043325946 0.11998588 -0.053534657 0.06873781 0.007307254 0.061646387 0.10425133 0.16007277
00000000: 395a 29bd 9133 94bd 0013 04bd a41b e6bc
00000010: 44a1 813c d976 3f3e 904f 903d b2da 24bd
00000020: b60c de3d edc0 433d b766 96bd b1e8 c13d
00000030: b294 ba3d 6033 9a3b 432b b3ba f33c bcbd
00000040: d4d3 0f3e f49a e3bd b73e 0a3d 8b88 573d
00000050: e9ed 693d e4ab f73d 298f de3d 2f7a 57bd
00000060: e125 90bd edda d13b d391 00be 35d5 dbbc
00000070: 1f90 1f3d dd24 183d e5f7 e4bd 24e9 babd
00000080: dbb2 5b3d b3e4 2cbd cb8b bebc c21b 20bc
00000090: 90cc 013e af0a c83d 3b9b 943c 73d1 e3bd
000000a0: 03b5 26be 4725 f73d 04d4 5abd d5e8 393d
000000b0: 2615 83bd e387 1a3d b2ee d93d fde1 cbbd
000000c0: 5ddd 773d 4e98 9d3d e1e9 09bd ac0d 033d
000000d0: ba76 093e a80f 89bc 087d d8bd 6630 87bc
000000e0: 8c76 31bd 28bb f53d 2847 5bbd 69c6 8c3d
000000f0: b071 ef3b ec80 7c3d b981 d53d 1eea 233e

fc3.weight f4 [2, 64]
-0.1032687 0.0093343975 0.007936734 0.10747697 0.03896658 -0.018579802 -0.09323199 -0.087878965
-0.042425204 0.03549745 -0.0134299835 0.09293925 -0.021697372 -0.016063286 -0.087966055 0.028405784
0.012469204 -0.012670795 -0.0009737171 0.061894123 0.08557828 -0.02710948 0.16103822 0.1350887
0.118355535 -0.09171414 0.089462966 0.014739635 0.051970594 0.080430865 0.0903387 0.029074086
-0.05418701 -0.037803024 -0.07614631 0.073904134 0.07194103 0.10643921 -0.0051172567 -0.09244603
0.011128827 0.021206684 0.003305004 0.051859893 -0.08820434 0.058135565 -0.09679111 0.006526692
0.033544462 -0.028017703 -0.013416095 0.06562375 -0.028234353 -0.008852892 -0.0055693313 0.07570589
0.045409538 -0.0070153265 0.048153453 0.13223611 -0.057624962 -0.016032629 0.04975996 0.054275665
-0.108406596 -0.01567632 -0.0098571265 -0.12861523 -0.2662908 0.1006037 -0.06779958 0.008953601
0.06937887 -0.009193034 0.002527079 0.033650544 -0.045278348 0.009240154 -0.07499533 -0.032945096
0.09657804 0.110262506 0.009415728 0.116435975 0.056708653 0.06327875 0.09500931 -0.09168914
-0.07573869 0.09056995 -0.09085928 -0.14573027 0.17322244 0.18788168 -0.09692654 0.4373571
-0.07455523 0.041401193 -0.09138658 -0.11961283 0.035171628 0.02997479 -0.07418687 0.070566505
-0.15909398 0.012453691 -0.011526262 0.11434613 0.0032294292 -0.06521897 -0.022511283 -0.013008634
0.28036228 0.010648656 0.19902411 0.08503417 -0.12155574 -0.010839068 -0.0060544754 0.00892687
-0.54973865 -0.13646612 -0.041050903 0.11074952 -0.051229678 -0.0084123835 0.04099907 0.062398292
00000000: 8a7e d3bd 4def 183c 1309 023c e31c dc3d
00000010: 6c9b 1f3d ab34 98bc 6af0 bebd e3f9 b3bd
00000020: 0dc6 2dbd c665 113d 6f09 5cbc ef56 be3d
00000030: b0be b1bc 2797 83bc 8c27 b4bd 3fb3 e83c
00000040: a24b 4c3c 2b99 4fbc 0c41 7fba b184 7d3d
00000050: aa43 af3d b314 debc 34e7 243e b154 0a3e
00000060: 6364 f23d 9fd4 bbbd 5c38 b73d 837e 713c
00000070: 1edf 543d f0b8 a43d 7f03 b93d c72c ee3c
00000080: 33f3 5dbd 58d7 1abd 99f2 9bbd 0d5b 973d
00000090: d255 933d cdfc d93d a9ae a7bb 5854 bdbd
000000a0: af55 363c a4b9 ad3c c498 583b 0a6b 543d
000000b0: 7aa4 b4bd 8f1f 6e3d 6b3a c6bd dcdd d53b
000000c0: eb65 093d 6285 e5bc 2ecf 5bbc bf65 863d
000000d0: bb4b e7bc b80b 11bc f07e b6bb b10b 9b3d
000000e0: 5aff 393d d3e0 e5bb 8e3c 453d e768 073e
000000f0: 2708 6cbd dc56 83bc 1ad1 4b3d 2950 5e3d
00000100: 4704 debd a06b 80bc c97f 21bc b6b3 03be
00000110: 4557 88be 5009 ce3d 82da 8abd 20b2 123c
00000120: 8216 8e3d 619e 16bc 5a9d 253b 27d5 093d
00000130: ca75 39bd 0464 173c 2797 99bd 70f1 06bd
00000140: b5ca c53d 4fd1 e13d 6d44 1a3c fc75 ee3d
00000150: 5547 683d 4a98 813d 3e94 c23d 84c7 bbbd
00000160: e31c 9bbd bd7c b93d 6e14 babd 513a 15be
00000170: 3961 313e 0e64 403e 6c81 c6bd 45ed df3e
00000180: 6ab0 98bd 4c94 293d e328 bbbd 92f7 f4bd
00000190: 2010 103d b18d f53c 49ef 97bd 2c85 903d
000001a0: 88e9 22be 910a 4c3c a6d8 3cbc 4e2e ea3d
000001b0: d5a4 533b 8691 85bd 9569 b8bc 2a22 55bc
000001c0: a58b 8f3e b377 2e3c facc 4b3e 6526 ae3d
000001d0: 37f2 f8bd 5996 31bc 9f64 c6bb 0242 123c
000001e0: acbb 0cbf c6bd 0bbe fe24 28bd a5d0 e23d
000001f0: 36d6 51bd 18d4 09bc a4ee 273d 5a95 7f3d

fc3.bias f4 [2]
-0.06387889 -0.0037311916
00000000: efd2 82bd 0287 74bb
